ml_models/SVC_model/SVC_model.pkl_08.npy (npy, 86144 bytes, 1 tensors)

array f8 [33, 326]
0	0x0000000000000000	0.0
1	0x3f1ee5edec37ab4c	0.00011786713280740913
2	0x3f778511afeb2b37	0.005742138948970069
3	0x0000000000000000	0.0
4	0x0000000000000000	0.0
5	0x0000000000000000	0.0
6	0x0000000000000000	0.0
7	0x3f7dd234809897fe	0.0072805453178599305
8	0x3f577f930548a6e8	0.0014342246769367076
9	0x3f4f7c82f6cdbe78	0.0009608878586799393
10	0x8000000000000000	-0.0
11	0xbf583cfd550d06fc	-0.0014793847987707989
12	0x8000000000000000	-0.0
13	0xbf82752cff877b67	-0.009012557552464618
14	0xbf62c34b39fec347	-0.00229038899120618
15	0x8000000000000000	-0.0
16	0x8000000000000000	-0.0
17	0xbf668e282e1dd276	-0.0027533325928124587
18	0xbf73f5e50cd0addd	-0.004873175360482898
19	0x8000000000000000	-0.0
20	0xbf76a5ec968033fa	-0.005529331370792251
21	0xbf7152c819fe1b90	-0.004229337355247234
22	0xbf64da518bf3c141	-0.002545508643031408
23	0x8000000000000000	-0.0
24	0x8000000000000000	-0.0
25	0xbf612f177a526b94	-0.002097650389783332
26	0x8000000000000000	-0.0
27	0xbf500f3fa011b05d	-0.000980198034336708
28	0x8000000000000000	-0.0
29	0xbf73aa635d10d25f	-0.004801166666812933
30	0x8000000000000000	-0.0
31	0x8000000000000000	-0.0
32	0xbf89f3564e9a19be	-0.012671160005322753
33	0xbf81ded996d077ba	-0.008725833811748508
34	0xbf78e35a9392f31b	-0.006076196493435738
35	0xbf6319b7e4a608b5	-0.002331599394154694
36	0x8000000000000000	-0.0
37	0xbf65f71c14ef7361	-0.002681307646965101
38	0x8000000000000000	-0.0
39	0xbf78568abad6c2d8	-0.005941907800136113
40	0x8000000000000000	-0.0
41	0xbf59ef59f92b2d59	-0.0015829447408347212
42	0xbf794dcf2bee1dd9	-0.006177720321722779
43	0xbf71a41a880d81cc	-0.004306892050266641
44	0x8000000000000000	-0.0
45	0x8000000000000000	-0.0
46	0x8000000000000000	-0.0
47	0x8000000000000000	-0.0
48	0x8000000000000000	-0.0
49	0xbf6717f9a8004ad1	-0.002819049463150016
50	0xbf8528c0af2d8933	-0.010331635805134276
51	0x8000000000000000	-0.0
52	0xbf62824ba16277da	-0.002259395328180408
53	0xbf3c479b107fee52	-0.0004315141272852363
54	0x8000000000000000	-0.0
55	0xbf8ae41e9e77e37e	-0.01313041611773413
56	0x8000000000000000	-0.0
57	0xbf6f7daf97c9b058	-0.0038441113995784475
58	0xbf681fc9525626a7	-0.002944844442656375
59	0xbf494659c377f253	-0.0007713259028033305
60	0xbf83b805c4a931c2	-0.009628338874926427
61	0xbf83dd635ef86e44	-0.009699608169334024
62	0xbf61ab61768c5d72	-0.002156916005684622
63	0x8000000000000000	-0.0
64	0xbf8508cb7b021d77	-0.01027068108693528
65	0x8000000000000000	-0.0
66	0xbf70992c3c4a9055	-0.004052326960536663
67	0xbf821c9ad4265344	-0.00884362182549981
68	0x8000000000000000	-0.0
69	0x8000000000000000	-0.0
70	0x8000000000000000	-0.0
71	0x8000000000000000	-0.0
72	0x8000000000000000	-0.0
73	0xbf7d66dca9fa35ef	-0.007178174942635603
74	0x8000000000000000	-0.0
75	0xbf6b7d96e848782e	-0.0033557841691296475
76	0xbf6f94715ff8b45b	-0.0038549627641005064
77	0xbf41b84baa1b99c5	-0.0005407685714232049
78	0xbf915d8052c3be18	-0.016958241511870836
79	0xbf868a6a53b6bbee	-0.011006193809263789
80	0xbf8ef00e702aec24	-0.015106308744512083
81	0xbf90cfba65e4ccfa	-0.016417419880963437
82	0xbf64048ac4f6ed5b	-0.002443572076769191
83	0xbf29e30857d8895a	-0.00019750096173349712
84	0x8000000000000000	-0.0
85	0xbf81fdce89d91be0	-0.008784879285611724
86	0xbf5da0538f1f668e	-0.001808244324357142
87	0xbf85bf797a07bb91	-0.010619114910665835
88	0x8000000000000000	-0.0
89	0xbf87899d41d351a5	-0.01149294716962219
90	0xbf5e013a59c7df97	-0.001831347449408915
91	0xbf76c4720a129abe	-0.005558438745686343
92	0x8000000000000000	-0.0
93	0xbf8bd16b9a6ca62b	-0.013583031320723546
94	0xbf6c10a478f1d3b8	-0.003425904498323775
95	0x8000000000000000	-0.0
96	0xbf723483b3d9f0bf	-0.004444612944663528
97	0x8000000000000000	-0.0
98	0xbf76eca0b8055cc4	-0.005596759612976846
99	0xbf5f974f576d884a	-0.0019281649417384355
100	0x8000000000000000	-0.0
101	0x8000000000000000	-0.0
102	0xbf47ffdb439db3aa	-0.0007324047685251984
103	0x8000000000000000	-0.0
104	0x8000000000000000	-0.0
105	0xbf7396992a0a5a9a	-0.0047822936036455935
106	0xbf7671f41bba79a9	-0.005479768322088332
107	0xbf73668a65bc1137	-0.0047364622257684485
108	0x8000000000000000	-0.0
109	0x8000000000000000	-0.0
110	0xbf987b4c97b3fb89	-0.0239078490822027
111	0xbf905277c9994751	-0.015939590148554676
112	0xbf7dc15a299d4bfd	-0.007264473149763082
113	0xbf826e1d8c6590d2	-0.008999091002529633
114	0xbf71f48c435ed6aa	-0.004383609679214176
115	0xbf2c27b4a70e69e8	-0.00021480636817446043
116	0xbf71317603d401c4	-0.004197560306466067
117	0xbf6601d62501f241	-0.0026864225874858876
118	0x8000000000000000	-0.0
119	0xbf766d396404a3e6	-0.005475258047490583
120	0x8000000000000000	-0.0
121	0xbf7c191ab68df3f9	-0.006859878871975583
122	0xbf891847bee8634d	-0.012253342164557113
123	0xbf8496cdf9321465	-0.010053261916491427
124	0x8000000000000000	-0.0
125	0xbf8470e26ebbd3a0	-0.009980935100864674
126	0xbf944998b22a38bf	-0.019811998247455827
127	0xbf96ec1c5e7a7349	-0.022385066286563036
128	0xbf959de6011b65e6	-0.021110147302214964
129	0x8000000000000000	-0.0
130	0xbfa039ab25d8f831	-0.03168997609144276
131	0xbf94376e4722946d	-0.019742701617947157
132	0xbf934b7ecf6342a6	-0.0188426794127873
133	0xbf7a1f9d444f508d	-0.006377806018424204
134	0xbf8d4c3c59b2f03a	-0.014305564391513415
135	0x8000000000000000	-0.0
136	0xbf7b441f0e3c1f4e	-0.006656762419659247
137	0x8000000000000000	-0.0
138	0xbf79d94800120b22	-0.006310731173587299
139	0x8000000000000000	-0.0
140	0xbf5f6400d8437100	-0.0019159324884219786
141	0xbf6d07f17316f15c	-0.003543826657475586
142	0xbf19c1e978f3bf88	-9.825694563736335e-05
143	0xbf638444ba524b9d	-0.0023824064579200514
144	0x8000000000000000	-0.0
145	0xbf68d56cccd14f1b	-0.0030314564706176556
146	0xbf67f597456fab47	-0.0029247240558922002
147	0x8000000000000000	-0.0
148	0xbf4dea10041faec1	-0.000912912197461556
149	0xbf73dc2e4e605f6c	-0.004848652728490648
150	0xbf7ca9984bdb7ad0	-0.006997675807467643
151	0xbf6427f77673fed0	-0.002460463834381567
152	0xbf50da5030012648	-0.0010286124306894285
153	0x8000000000000000	-0.0
154	0x8000000000000000	-0.0
155	0xbf5d679fe7abff72	-0.0017947255680041655
156	0x8000000000000000	-0.0
157	0x8000000000000000	-0.0
158	0x8000000000000000	-0.0
159	0xbf7797f09289d73f	-0.005760135398863941
160	0xbf837c6be312ecee	-0.009514658801313716
161	0xbf83ff53053e5e56	-0.009764336202166362
162	0xbf722cb46de41f4e	-0.004437165071301609
163	0xbf93eadf8accf32b	-0.01945065769835989
164	0xbf87b314dd136f75	-0.011572039601041454
165	0xbf87829b58d245c1	-0.011479581497300441
166	0xbf4df7451e7dfda8	-0.0009144866462377681
167	0xbf64d9068d3813b2	-0.0025448921167047995
168	0xbf79982497468b96	-0.006248610432893728
169	0x8000000000000000	-0.0
170	0xbf6b79a4b5b23569	-0.003353902529460374
171	0xbf857e70d9e1af42	-0.010495072983949808
172	0xbf720576291d59bf	-0.004399739804134161
173	0x8000000000000000	-0.0
174	0x8000000000000000	-0.0
175	0x8000000000000000	-0.0
176	0xbf60fdde3abaadbe	-0.0020741787355597887
177	0xbf69f9a3c6ee103f	-0.003170795323457681
178	0xbf61a2c0b37556ac	-0.002152801865728934
179	0xbf67b5d5f1fb33c6	-0.002894323217196934
180	0xbf5d84a7ee81dd33	-0.0018016471822458024
181	0xbf6c9e82f64132fd	-0.003493552956604139
182	0xbf5d41af108b5b90	-0.0017856797805302117
183	0xbf728f888e37561f	-0.004531415386244158
184	0xbf577597bddddd0f	-0.0014318448879445144
185	0xbf6ff37a48620a85	-0.003900278886307009
186	0xbf6124c549aaa583	-0.002092728927284683
187	0x8000000000000000	-0.0
188	0xbf6ab8fcef070f70	-0.003262037287841517
189	0xbf5c023239170435	-0.001709507985978809
190	0x8000000000000000	-0.0
191	0xbf7a183f89704545	-0.006370781126876783
192	0x8000000000000000	-0.0
193	0x8000000000000000	-0.0
194	0x8000000000000000	-0.0
195	0xbf677991f14873bd	-0.0028655863227542142
196	0x8000000000000000	-0.0
197	0x8000000000000000	-0.0
198	0xbf70d23e88367d45	-0.004106754556601648
199	0xbf6677c54d0e4176	-0.0027426579985744782
200	0xbf7e2e34f629a933	-0.007368285065789504
201	0xbf511ff97bfb19fd	-0.0010452209825629881
202	0xbf50bb5ee2579807	-0.001021235142042
203	0xbf6b0e17aa91c635	-0.0033026182396092237
204	0xbf6997af19503f5c	-0.0031240863704694987
205	0xbf50ca304d8107e5	-0.0010247680384201038
206	0x8000000000000000	-0.0
207	0x8000000000000000	-0.0
208	0xbf842898998c496a	-0.009843055902398052
209	0xbf6b1de1156cba96	-0.0033101459661318373
210	0x8000000000000000	-0.0
211	0x8000000000000000	-0.0
212	0xbf6be12742389fd2	-0.003403259923079085
213	0xbf77cb793cde52ff	-0.005809281907109164
214	0x8000000000000000	-0.0
215	0xbf6e0d90599908f7	-0.0036685771308678744
216	0xbf47b108f77b4aab	-0.0007230085165822094
217	0xbf8111042aa30054	-0.00833323721997218
218	0x8000000000000000	-0.0
219	0xbf350fff897968b4	-0.00032138813683036814
220	0x8000000000000000	-0.0
221	0xbf76a461666cdd53	-0.005527859181533162
222	0xbf611e051c6eda8c	-0.0020895099473493047
223	0x8000000000000000	-0.0
224	0xbf643368d93c16f5	-0.002465920240754533
225	0x8000000000000000	-0.0
226	0xbf707eb44f06bdff	-0.004027084666105462
227	0xbf7ce80cd5d4a268	-0.007057237756534641
228	0x8000000000000000	-0.0
229	0xbf7419aaeba4fcfb	-0.004907291086339467
230	0xbf72bddf902b63c1	-0.004575608533479548
231	0x8000000000000000	-0.0
232	0xbf81c2343bbfb22f	-0.008671196053875977
233	0xbf34f3d64af5b41c	-0.00031970960386368415
234	0xbf0f148f1d99154e	-5.928098444178219e-05
235	0x8000000000000000	-0.0
236	0xbf313aeec53ab79e	-0.0002629120765317241
237	0xbf805991097746bb	-0.007983334638001485
238	0xbfa240d2bdc3ef2a	-0.035650811829297815
239	0xbf74c54034deab89	-0.005070925528268052
240	0xbf9d2fed7aa4c7c7	-0.02850314198548867
241	0x8000000000000000	-0.0
242	0xbfa112c70e793ba8	-0.03334638644866256
243	0xbfab1b525731530e	-0.052942822593342695
244	0x8000000000000000	-0.0
245	0xbf6d440b957f4270	-0.0035724855660890717
246	0xbf57b5427735ec14	-0.0014470242575430657
247	0xbf67a22d6d3ad345	-0.0028849494209119164
248	0xbf7164ad7f58120b	-0.00424640438496172
249	0xbf7b498266f67252	-0.006661900886140675
250	0x8000000000000000	-0.0
251	0xbf7102bf495a3921	-0.004153010571498223
252	0xbf677f918ca7e6e2	-0.00286844661354456
253	0x8000000000000000	-0.0
254	0xbf800715ed0778bd	-0.007826014801079468
255	0xbf6192897b006aa8	-0.0021450696149377287
