ml_models/SVC_model/SVC_model.pkl_09.npy (npy, 4568 bytes, 1 tensors)

array f8 [561]
0.012756535703022516 -0.26466741008690736 -0.14280740696858937 -0.13997748103538588 -0.512938156792618 0.14204068021287272 -0.3557004947270838 1.2168662496675635
0.21589764433259517 -0.12964616851244984 0.3430880582892392 -0.4621622166690554 -0.6164933080907957 -0.24492024986803584 -0.23238784933741036 -0.16364822619147076
-0.029592624834644175 -0.5484477734015736 -0.07524891487964101 -0.755593473203975 0.1841298750833585 0.04203370311152414 -0.32057326446762213 0.2920292936746602
-0.028316981195324734 -0.1374481525138337 -0.39149550278268547 -0.597248020167321 -0.22178607200413714 0.42593433057082725 -0.17994011989733355 -0.11806838568670378
-0.21287301304476114 -0.09812874466819921 -0.10301688335689338 -0.09705985760274072 -0.1919132990196338 0.07836936011301553 -0.4669786895785452 0.18728922797103692
0.04828129080451631 0.20462980608598738 0.0058705737306384165 -0.15864910078902794 -0.28132837557760065 -0.17925686434465152 -0.10886693660474384 -0.03580265461055533
-0.24221613195534467 -0.5031104324933172 0.11199674490488798 -0.6464330174597045 0.021572930860723545 0.06697655374252538 -0.002522903614446246 0.03908182969921219
0.12787015685931058 0.011318484034942846 -0.589803433076664 -0.29097609662995183 0.00545796389603301 0.5372948392198461 0.016988941840674347 -0.051383389537307644
-0.19827794129234003 0.25518708548484687 0.4968090865256872 -0.0006110448292813751 0.3417977456087299 -0.31430237553813056 0.5902931578561669 0.3757066121032946
0.32768851233214813 0.3325092922213926 0.019426508995586667 -0.029290396269710896 -0.07614348182065732 0.0742075124034541 0.23296744562650734 0.15817038249842907
-0.06539847227688265 0.35239081167167796 -0.6152937859074004 0.43067543672868225 0.38699383331465137 0.1940804275414677 0.4719995945882231 0.45504772751526607
0.24024767550837514 -0.24690777612264547 0.034245711682369256 0.18523875014894514 0.7250315887583274 0.04725502590483243 0.053631231140486825 0.04915616990943887
0.030513907059996466 -0.22907850295879248 0.09416400852139879 -0.42660561634638405 0.7930257667169632 0.5820860511174574 0.008197301981481775 0.3521069964925908
-0.26744651374241163 -0.1803210365701474 -0.22802672731099788 -0.14767463958294788 0.08541417029313071 0.012780471280712623 -0.796758473705452 -0.023453152380296424
-0.6203611479002139 0.22805936700614643 0.0912690558926732 -0.07047011735661284 0.36490518933325666 0.158317168299533 -0.001413857174250728 -0.46225629410552926
-0.21327259467931042 -0.09499978910185013 0.565807809805096 -0.257504017165203 -0.1611155828581401 -0.20864043310127034 -0.25567079136081633 0.016570339201419777
-0.38796869932492695 0.425142919183769 0.10377125715693183 0.27153993694370554 0.04551717756500501 -0.16003444234620345 -0.2491237838493733 -0.23706504629392441
-0.17294997383376756 -0.05325644169181361 -0.04289937973824745 -0.674891180049673 0.007415578223398321 -0.6155246894790166 0.3084668184758525 0.17403889837951578
-0.10013042274707847 0.2548917989792144 0.11907176978021548 -0.06020496575189324 -0.40827113739941645 -0.2301259053934949 -0.1216933714230629 0.7917240890938754
-0.19135264578517583 -0.18883688582601882 -0.2736827241557226 0.8092667430902728 -0.24010468915825323 1.0694636367128822 0.8234526741784224 0.2619717394624706
0.6310675280234354 0.10330949989006695 0.1295542579982811 0.0654883290631039 0.03495417556265576 0.4519449647542523 0.2500072651112968 -0.11663395859985573
0.41443397207356514 -0.515705622968714 0.48964092433655937 0.518408828307298 0.1829511137868305 0.6948323079843335 0.4530163784377907 0.5235240593332416
-0.3362067154506545 0.0026694399354748647 0.2096074156560818 0.822379278265465 0.01685212998328514 0.10878622231255691 0.007663505109367938 -0.35534579815320516
0.7453234369411769 0.15792044260978427 0.007301888923664153 -0.13795783116703103 -0.6228602682878127 -0.49900329305419155 -0.4774896663721316 -0.4635310524173231
-0.9366843758770456 -0.16771375077036194 -0.3892839122132354 -0.11379417921769279 -0.6938201138437545 0.1667418186279955 0.12746770070643473 -0.24396358113998728
0.1286602063842958 -0.004944521396080486 -0.6108141354556946 -0.3890478905039731 -0.42464280929642373 -0.13758222333502254 0.5102892312368922 -0.21893982150313318
-0.1495007132706349 -0.2650768199787099 0.5518037260757144 0.48719150569941116 0.37137059615134327 0.46863310766425015 0.1614539862837577 0.27736936402464596
0.18575599812456045 0.25735215722843663 0.35232085949960323 0.2314747337688079 0.07374980223486861 0.40370995280397826 -0.3669319706595582 0.4861843071734412
0.3765699628004268 0.40072278453378357 0.4966449819253887 0.5649102584287323 0.3489992335113754 -0.4482390085207371 0.14262422834568783 0.43088156478931433
0.8210201300817888 0.33700098343810975 0.29599565485497326 0.8164822944286915 -0.663415940002 -0.3141928404563405 -0.7928625154017185 -0.7490939887714112
-0.8669134155003533 -0.5952434182069859 -0.5868604243508356 -0.9163869676944312 -0.6713838999057465 -0.8373342002643325 -0.372765384666783 -0.8461121778322137
-0.024857410915803648 -0.17743601944291718 -0.8602654949919653 -0.5335309357749033 -0.4561073752599289 -0.6925791526109402 -0.5384323948884391 -0.7835788316741701
00000000: 51e7 3c3d 1920 8a3f 79fa a893 4ff0 d0bf
00000010: 6f40 475b 8347 c2bf c499 9c37 c8ea c1bf
00000020: 1f6f 0948 fd69 e0bf 0ba2 1b96 632e c23f
00000030: af86 0102 ccc3 d6bf 8cda 9ebe 4878 f33f
00000040: 5c91 d8b4 88a2 cb3f cd05 e8e2 3e98 c0bf
00000050: f306 809d 27f5 d53f e196 82d5 1094 ddbf
00000060: 807d 8e2c 50ba e3bf b8da a7f7 8b59 cfbf
00000070: 822b 7292 e2be cdbf 3338 c5d1 6cf2 c4bf
00000080: 996a 786f 874d 9ebf 625c 4a58 e28c e1bf
00000090: 17b1 774c 8343 b3bf 916d 0f5d d22d e8bf
000000a0: 2b8c d957 9191 c73f c635 6308 7185 a53f
000000b0: ba10 b7b9 4584 d4bf 13a0 73a2 9bb0 d23f
000000c0: 7418 9f70 20ff 9cbf 04a5 f8ab e697 c1bf
000000d0: bde4 3e27 430e d9bf 4305 47e1 a71c e3bf
000000e0: 30a8 fb6a 7c63 ccbf 1de7 0211 8242 db3f
000000f0: 4e43 1921 4708 c7bf b245 37cf ba39 bebf
00000100: a836 9d42 6c3f cbbf 48bf 2525 f71e b9bf
00000110: ee25 f480 505f babf 087f 2832 ead8 b8bf
00000120: 4b78 7a6f 9d90 c8bf 0fa0 b1ae 0310 b43f
00000130: 6bcd ea95 fae2 ddbf 2eac 83ea 17f9 c73f
00000140: 4733 074a 53b8 a83f ad8b 763a 4f31 ca3f
00000150: 32da e822 be0b 783f 14df b61d 9d4e c4bf
00000160: f5b9 22bb 4801 d2bf 01ce f890 e3f1 c6bf
00000170: bc44 551c b4de bbbf 721b 53bd b954 a2bf
00000180: e9e9 a72e f000 cfbf 11ba ba0c 7b19 e0bf
00000190: a0fc 9f94 d1ab bc3f ad68 a14b 94af e4bf
000001a0: 024b 1ae2 3617 963f 5545 ec1b 6025 b13f
000001b0: 95ef 7a90 e9aa 64bf 2617 da98 8802 a43f
000001c0: 302d ec9e 0c5e c03f c1bb 2936 252e 873f
000001d0: df3f 0473 abdf e2bf 5260 bc34 5a9f d2bf
000001e0: e2b7 fa06 175b 763f 3b48 58f2 8431 e13f
000001f0: 01ba 6596 8c65 913f 78a0 3d73 ec4e aabf
00000200: 1d35 afec 2b61 c9bf dd36 a136 fc54 d03f
00000210: 06f1 be56 b8cb df3f 2792 71c7 d005 44bf
00000220: fe1a cfa6 03e0 d53f ca72 ffb5 871d d4bf
00000230: 056f 017a aee3 e23f 94f9 f7be 930b d83f
00000240: 3a74 ef3c d9f8 d43f 4c3f ed0d d547 d53f
00000250: 6df8 3ef3 8ae4 933f 0adb 4238 4dfe 9dbf
00000260: c729 39a4 237e b3bf f6ed e376 43ff b23f
00000270: 16cf ff93 e0d1 cd3f 7066 0356 ed3e c43f
00000280: 0738 a34b f4bd b0bf ae9b e230 928d d63f
00000290: 1cf0 fc97 7cb0 e3bf 5c2c fcb4 2f90 db3f
000002a0: 3fc4 75c8 81c4 d83f 64ca 8aa0 a0d7 c83f
000002b0: cbd3 9ec9 3d35 de3f 1d05 f380 801f dd3f
000002c0: 91ce 9f92 6fc0 ce3f c094 c98b ac9a cfbf
000002d0: 7475 6867 a788 a13f aeba eb42 e7b5 c73f
000002e0: 0416 4972 7533 e73f 4f70 aa8d cf31 a83f
000002f0: add0 957f 8d75 ab3f b6b8 505c ff2a a93f
00000300: 825e 95a3 093f 9f3f 075b 36c3 7152 cdbf
00000310: bd46 0fe9 211b b83f 60d9 9fa4 814d dbbf
00000320: ebe8 9d92 7760 e93f 813b 20ed 72a0 e23f
00000330: 603e 683f bfc9 803f c238 a8c8 eb88 d63f
00000340: ddfb 7cfb d71d d1bf cbbf 6c7d c214 c7bf
00000350: 1e13 35d4 fa2f cdbf 638a baa9 00e7 c2bf
00000360: f922 06fc b3dd b53f 59ce 6cd1 a52c 8a3f
00000370: 7e06 6ca0 0b7f e9bf 9c8d d869 1a04 98bf
00000380: 1118 3e9f ffd9 e3bf 023f 6ba1 0c31 cd3f
00000390: c021 32aa 685d b73f cb55 6461 540a b2bf
000003a0: fced 944b 9b5a d73f 07f4 1eaa bc43 c43f
000003b0: b99a c694 252a 57bf 006b 636c 9b95 ddbf
000003c0: 0aee a331 844c cbbf 7fc0 51fb e751 b8bf
000003d0: 96e5 ddfa 181b e23f f80a 1421 f27a d0bf
000003e0: 6037 a077 6f9f c4bf a088 65ce bab4 cabf
000003f0: 31fa db05 e95c d0bf 359d d0a3 d0f7 903f
00000400: d438 deaa 7ad4 d8bf ec4b 81a5 8a35 db3f
00000410: e2fa c0cb c090 ba3f a1ca 2e0b e960 d13f
00000420: 2889 180a 074e a73f 3826 0e34 027c c4bf
00000430: 6df8 24c4 49e3 cfbf 7bb6 6dbe 2558 cebf
00000440: 25e4 ba88 3923 c6bf 4a3f bca6 6d44 abbf
00000450: 9429 fd51 e8f6 a5bf 9b82 5563 b598 e5bf
00000460: 71f1 341f cc5f 7e3f 7f2c 66d5 60b2 e3bf
00000470: 2f51 509c ebbd d33f 37cd 6218 e846 c63f
00000480: 0d8a 08bb 25a2 b9bf e598 28b1 2550 d03f
00000490: bf36 15cd 7c7b be3f fc1f ec6d 2fd3 aebf
000004a0: 72ff c143 1d21 dabf 4d50 d002 c474 cdbf
000004b0: d7eb 66fa 4b27 bfbf 7da2 c3c1 cd55 e93f
000004c0: 6340 d355 3e7e c8bf ba5b 739c ce2b c8bf
000004d0: 3aa8 6e8b 0484 d1bf 5f05 6a5e 83e5 e93f
000004e0: 5085 c61d c0bb cebf c016 ffe6 851c f13f
000004f0: 5bcd 2c6c b959 ea3f 3dec 5d1d 25c4 d03f
00000500: f7b3 4d87 b431 e43f 1dda 64cb 7d72 ba3f
00000510: 3f80 94e2 3b95 c03f f280 98d7 d7c3 b03f
00000520: 6ced cc81 83e5 a13f 5a87 cd92 aaec dc3f
00000530: 4496 da78 1e00 d03f 0216 ca1d b9db bdbf
00000540: da11 1a11 1686 da3f 2472 2014 a980 e0bf
00000550: 48c2 33e3 4656 df3f 6533 711c ce96 e03f
00000560: 5898 3d2d f16a c73f b4e6 dff6 103c e63f
00000570: b754 7c68 38fe dc3f 892c 3087 b5c0 e03f
00000580: c897 e32b 6984 d5bf 0b89 16a7 38de 653f
00000590: 35f8 9e71 6ad4 ca3f 3bdd 2159 ee50 ea3f
000005a0: 88a8 954c af41 913f 347b 16f3 69d9 bb3f
000005b0: 5655 147d c463 7f3f b9b2 754d fcbd d6bf
000005c0: 7b59 5389 b0d9 e73f c27e 30b0 bc36 c43f
000005d0: a2c2 04e2 95e8 7d3f 5674 8b2a 9aa8 c1bf
000005e0: 21c4 48a8 78ee e3bf 4ee6 1082 abef dfbf
000005f0: a9c2 4fd1 308f debf f905 b425 7eaa ddbf
00000600: 581d 2283 51f9 edbf 32f8 52e9 a477 c5bf
00000610: 5f25 f411 07ea d8bf 4b14 3786 9d21 bdbf
00000620: 7082 483d c633 e6bf bbff f0c0 cb57 c53f
00000630: 4b4c ea92 dc50 c03f 14a5 34d9 323a cfbf
00000640: edcb 5b09 f077 c03f 8571 0cdb b440 74bf
00000650: 64ef f615 ca8b e3bf ebb5 921f 29e6 d8bf
00000660: 9a38 9a08 592d dbbf df10 de56 4b9c c1bf
00000670: d93a f514 4a54 e03f ccf2 9256 3806 ccbf
00000680: 36ef 1ce1 d622 c3bf 881e 2fc4 04f7 d0bf
00000690: ddcb a949 60a8 e13f cc8c f747 252e df3f
000006a0: 72a0 4a2d 89c4 d73f 4a69 cfb7 15fe dd3f
000006b0: a3e3 7233 86aa c43f ac7b d96e 6bc0 d13f
000006c0: a88b 7d40 dac6 c73f d279 b62e 7578 d03f
000006d0: 48f6 4fca 6c8c d63f 4094 b1cd f6a0 cd3f
000006e0: 216b af5c 44e1 b23f f437 1745 62d6 d93f
000006f0: 90bc 753b d07b d7bf b2da c8c8 a41d df3f
00000700: af8f b8e6 b819 d83f fd6a 952d 71a5 d93f
00000710: 3de4 c508 08c9 df3f c30a a4ad be13 e23f
00000720: ccaa 90e1 0056 d63f 81d5 98aa f2af dcbf
00000730: e254 2ebe 8241 c23f d10a 4e45 9093 db3f
00000740: e8e2 0102 cc45 ea3f 8789 a592 6c91 d53f
00000750: be0d 57c2 97f1 d23f 5db2 0a7a 9f20 ea3f
00000760: 9d84 be10 b43a e5bf d36d 9949 bc1b d4bf
00000770: 5bfd bb35 215f e9bf ace8 ecf4 93f8 e7bf
00000780: a634 0134 c1bd ebbf d476 cbec 3b0c e3bf
00000790: a5e9 3c83 8fc7 e2bf 564d 17c3 0a53 edbf
000007a0: edfe a416 fa7b e5bf d8a4 be17 71cb eabf
000007b0: 5e61 0e58 63db d7bf 992c 91d8 5913 ebbf
000007c0: 2754 c99b 3874 99bf 4fe3 5136 39b6 c6bf
000007d0: 8cc4 db80 4b87 ebbf edd6 1178 af12 e1bf
000007e0: bb2b 0dfd dc30 ddbf 485f 4bc1 9b29 e6bf
000007f0: c4e3 e492 d63a e1bf 421c fce9 1313 e9bf
