ml_models/SVC_model/SVC_model.pkl_11.npy (npy, 4568 bytes, 1 tensors)

array f8 [561]
000000 a7 9c d5 bd 32 70 af 3f cc 71 8b bd 03 a5 95 bf
       0.061402879403254666 -0.021137293285265632
000010 12 95 5b 2b 00 46 9b 3f 9e b6 a0 61 d8 ff 94 bf
       0.026634218832346575 -0.02050722213623734
000020 89 37 40 16 ab ac ae 3f 5e 3a 82 3e 1e 9f b5 bf
       0.05991110464684286 -0.08445920015422234
000030 f7 27 7b 28 83 fb a9 3f b2 f4 b4 bf 02 04 a7 3f
       0.05074701184419433 0.044952474500385434
000040 89 e2 f3 8b 17 14 a8 bf b3 4f 11 fc cc e4 2e bf
       -0.047028289636675664 -0.00023570062879463074
000050 6a 63 97 fe cd 35 a1 3f 4a 7b 11 dd ad f5 bc bf
       0.033613622024580916 -0.11312376639533031
000060 88 da f2 04 3c 8d aa bf d7 2e 33 7c c3 3e a3 bf
       -0.05185878334434785 -0.037588223372578326
000070 dd 83 ac cd 98 b6 b5 bf 23 c8 92 ef e2 0f ca bf
       -0.08481745740256437 -0.20360981653135565
000080 ca 06 4e 69 1d a6 8f 3f 98 f3 72 82 c2 5e b6 bf
       0.015453557754656972 -0.08738341984549292
000090 c8 40 b5 fd 34 1f 88 bf d1 f7 7c c7 d2 d8 b7 bf
       -0.01177827262168342 -0.09315221185985868
0000a0 04 39 91 97 18 1e 9a bf 3c f3 6c f5 87 73 a5 3f
       -0.025505432368214023 0.04189705725591472
0000b0 2b 74 d5 e2 2b 40 92 3f e9 7f 4c 1f e2 fb de bf
       0.017822919578396473 -0.48412373596693087
0000c0 3c 26 92 10 e8 ca 8d 3f 8f 29 30 e1 9d 73 a6 bf
       0.014547169690803156 -0.043850835551057725
0000d0 93 11 aa 4f f7 55 b3 bf fc f2 8d 54 22 a0 b6 bf
       -0.0755304879658694 -0.08838095249479844
0000e0 4a ab ab d4 30 3f 83 bf cc 24 e6 71 39 f0 af bf
       -0.009397870531264414 -0.06237964167946472
0000f0 95 18 e0 3e a7 26 9e 3f 30 a4 d9 d4 43 70 a2 bf
       0.029444325649841636 -0.036012763722120034
000100 12 b8 8c f4 a9 fa 60 bf ec 60 72 0e 5e d0 b7 bf
       -0.0020726508559141344 -0.09302318432526463
000110 50 c2 fd a5 43 9f b0 bf 8a d4 4e d1 6c 5d b6 bf
       -0.06493017961998615 -0.08736305341774844
000120 ce 1a ff f8 3f 5d b8 bf dc fc d0 c2 6d f6 b6 bf
       -0.09517288044944935 -0.08969770437487362
000130 e6 37 ce af 37 4b c5 bf e3 fa ff 4a 77 39 be bf
       -0.16635795673613457 -0.11806436139157088
000140 ea b5 a8 94 06 26 c3 bf 5a 99 46 cd 18 9f bd bf
       -0.14959795244924062 -0.1157088757669035
000150 d1 49 fc 72 cd 85 b0 bf ae 9f 5c 9d 25 fa b7 bf
       -0.06454166466963975 -0.09366068927613355
000160 40 d4 5a ac a9 1d c5 bf c4 4f ea df 00 79 a0 3f
       -0.16496773639451767 0.03217318280545059
000170 4a b6 e1 ba 9b a6 b3 bf 16 ca b8 74 63 75 bf bf
       -0.07676099121609883 -0.1228849563565649
000180 c0 bb 72 72 f0 04 c1 bf 5e 46 95 20 ec c6 c3 bf
       -0.13296323383607778 -0.1545081290337746
000190 5f 4b be fa 3b 50 b2 bf 5f 40 85 af d8 92 b9 bf
       -0.07153677817977443 -0.09989694867295061
0001a0 e4 61 33 a9 f7 64 c0 bf 0c 8c e3 e8 5c d3 c0 bf
       -0.1280812812972406 -0.13145028468633801
0001b0 77 f9 c2 92 ec 2e b4 bf fc 0d ba b8 ca c5 c5 bf
       -0.07884100516364421 -0.17009862918722252
0001c0 7e c7 26 c2 c7 13 b2 bf 79 26 16 1f c3 40 bd bf
       -0.07061432352091221 -0.11426944264362672
0001d0 3c b7 69 0b e0 5c bc bf 63 8b e2 1f 32 c2 c2 bf
       -0.11079216269146469 -0.14655138546830945
0001e0 4b 87 e9 1e 7e 1f b2 bf c2 53 85 51 e0 54 c3 bf
       -0.07079303984349143 -0.15102771740444437
0001f0 91 49 ca 07 0e 29 a2 bf 0f b5 91 da b2 fc bb bf
       -0.035469473315191576 -0.10932462536012032
000200 4c 0b 05 65 1c 00 8f bf 0d a8 69 59 eb 34 a6 bf
       -0.015136930306317041 -0.04337249247039674
000210 02 c4 76 c2 f4 7f b5 bf 23 71 cf 20 82 4a 7c bf
       -0.0839837050214243 -0.006906994164605859
000220 11 2e e3 4f 79 5f ac bf 57 09 66 9b c5 87 cc 3f
       -0.055415907861597564 0.22289342964001932
000230 97 72 dd c6 4e 2e 6e bf 71 5a 22 d2 a4 f5 a9 bf
       -0.003684190617532511 -0.05070223870386748
000240 98 72 e8 c1 38 b3 a3 bf 25 eb 2d 01 d2 15 b3 3f
       -0.03847672812500952 0.07455170182030864
000250 4e ac a1 68 e7 4b 80 bf f8 3c 67 32 de 9f b8 bf
       -0.007957275276757294 -0.09618939142750438
000260 2f 0f a9 15 77 c0 af 3f 1e a9 9b 32 22 aa b3 bf
       0.06201526774796517 -0.07681478248165205
000270 79 45 68 1a d6 7e 90 bf c3 8f 37 68 7e cb 86 3f
       -0.016108842241071984 0.011130321078731137
000280 2b 8d 49 7d fe f7 b2 bf 4a ba 1a 78 a9 0c a6 bf
       -0.07409658964893555 -0.04306535330885149
000290 3f 21 95 ef 90 2d ab bf af 83 ec ce 05 de ad bf
       -0.05308201717940841 -0.05833452368666003
0002a0 14 c9 16 93 19 31 90 bf 02 bd aa ba 9c 67 88 bf
       -0.01581230125675244 -0.011916374632475971
0002b0 0c 93 5f 53 1c 73 bc bf c8 55 80 97 20 1b 79 bf
       -0.11113144908410905 -0.006129386245466724
0002c0 c6 35 27 74 a0 5a 9f bf 7b 27 22 ec 3f 70 5e 3f
       -0.030619151200701265 0.001857817100729935
0002d0 9e 3a c1 5c 4e d0 b3 bf 02 33 19 3b 00 6e 98 bf
       -0.07739724888345242 -0.02385712013920039
0002e0 a4 40 d5 90 59 bb b3 bf 21 dd 99 54 44 7a a9 3f
       -0.07707748208963722 0.049760947539591045
0002f0 76 15 18 65 34 ea 85 bf 14 f1 46 11 fb 62 a6 3f
       -0.010700616202494056 0.04372391305830284
000300 38 0c 2a 8d e2 5a 8e 3f d5 29 0e f1 60 8c a5 3f
       0.014821786816588398 0.04208662931985755
000310 5c 25 fc 5e 59 cd 96 bf 12 22 9b 4b 25 1e a7 3f
       -0.02226771967165085 0.04515186832356134
000320 f8 6a 6e db 00 8c ac 3f 44 93 19 c8 4c 78 c3 bf
       0.0557556407795427 -0.15210876245978444
000330 14 04 7b 15 c6 9d 80 bf ad e8 3e 79 99 0f 90 bf
       -0.008113429575475485 -0.01568450739407783
000340 ab 29 1c f3 0c cb 8a 3f ce 2f f0 e8 3c 9b a7 bf
       0.013082600754860637 -0.04610624640926596
000350 32 83 79 65 b2 0d 95 3f 5f 22 70 9f f6 88 99 bf
       0.02056006187774812 -0.02493653629429315
000360 70 fb 4a f6 42 59 b7 bf bd 00 d4 f1 e9 1a a8 3f
       -0.09120577347765191 0.04708033635142914
000370 8d 7a e0 a8 60 0f a4 bf 4e d8 61 cd 34 d4 9c bf
       -0.039179821600773136 -0.02815325263551243
000380 2d cf 21 4c ca 10 a7 bf cf fe 65 3f 5b f0 97 bf
       -0.045049974244561454 -0.023377824539692334
000390 5f 0e 42 ed 05 c4 84 bf 4e 6b 48 27 6a 5f 2f 3f
       -0.010139509490051766 0.00023935480898348366
0003a0 1f ec 23 80 cf 9d c3 bf e9 6c e2 07 1f 9b 98 3f
       -0.15325349575854916 0.024029240471105693
0003b0 be 5f b8 7e 6b 75 75 3f 3d 27 21 5a 1b 93 96 bf
       0.0052389334701032336 -0.022045543075626773
0003c0 bf b5 d8 39 10 be a4 bf 49 57 ad a3 3d 1e 8b bf
       -0.04051256853231732 -0.013241273458031737
0003d0 b6 82 4b ad 26 75 b5 bf 83 6a d2 7d 09 25 a4 3f
       -0.0838188336451918 0.039345070466159114
0003e0 ce 6d e9 94 5e 5f 9b bf 9b 19 38 fa 8d df 8b 3f
       -0.026730993117196004 0.013609990309316802
0003f0 d9 94 72 a0 60 ce a1 3f 4b 2b 52 ed 0c 2c aa bf
       0.034777659974943816 -0.05111732861504111
000400 35 34 87 e1 7d e2 95 3f 4e 28 20 89 a0 55 5c bf
       0.021371809854646002 -0.0017293994646956526
000410 4b a9 d5 8b c7 41 8f bf d9 03 f7 d8 70 15 ad bf
       -0.015262183146394511 -0.05680420540330262
000420 95 7d b7 d2 9f e9 79 3f f9 a8 a8 fb 6a 9a 7a bf
       0.00632631712821254 -0.006494920637616136
000430 7c 1e 7c f0 c8 e6 3a bf 3b c5 cd 46 9c f1 94 3f
       -0.0004104843687717586 0.02045292074348491
000440 6c ac 30 a2 7c ff a3 bf a7 b0 74 02 d0 06 97 bf
       -0.039058584974861116 -0.022486925268069637
000450 23 3e cf 21 89 91 aa 3f 5c e4 e4 d3 b2 0e 93 bf
       0.05189159906114706 -0.01861075800227173
000460 9f ca 2f ed f6 33 91 bf 13 9a 56 c8 4a e6 b2 bf
       -0.016799791552282724 -0.07382647887298104
000470 85 70 b8 1b e3 08 67 3f 39 04 01 3f 34 2b 84 3f
       0.0028118549069074427 0.009848030255058858
000480 61 58 04 84 5e ed 8e bf 31 91 02 af 48 f4 b7 bf
       -0.015101183322752289 -0.09357122681337128
000490 d1 a5 5f 42 2b 74 97 3f dd 74 56 81 0b 05 8b bf
       0.02290408699619723 -0.013193216213773723
0004a0 03 16 5d bc b6 b2 7e bf 2c e2 0f f4 e0 3b 6e 3f
       -0.007494653522206021 0.0036906617756325057
0004b0 eb 26 27 7a 68 12 84 3f 87 4d 6b 6a aa f2 a3 bf
       0.00980073569089109 -0.038960767260188205
0004c0 0c 9f dc e0 37 1a b4 3f a7 57 cd 59 66 a0 81 bf
       0.07852505912580571 -0.008606719604056524
0004d0 43 92 1e 73 25 58 b2 3f 0c 9e 44 bf 8e 7e c4 bf
       0.07165750561268518 -0.16011223162898636
0004e0 ad df 05 98 96 4b bd 3f f1 dc 54 9b 58 0d b0 bf
       0.11443463527200377 -0.062703645632485
0004f0 e7 8d c4 61 67 76 b4 bf 90 4f 98 70 5f bb 7a 3f
       -0.0799316991511244 0.006526348888218694
000500 2e 0a a6 9a 2c ac 95 3f 6b 65 c4 1a 58 27 86 bf
       0.02116460508251288 -0.010817230526799467
000510 59 58 52 69 fb fb a2 bf 35 1b b2 cf f5 e2 ad 3f
       -0.03707872067131807 0.05837219391201246
000520 81 78 30 80 11 21 a6 bf 83 8a 1c 28 2a f9 b7 bf
       -0.043221041582214965 -0.09364570121082676
000530 86 1f 56 eb 3a 95 80 3f b1 92 a4 3b e4 d1 ba bf
       0.008097133929154909 -0.10476519065975755
000540 76 a6 09 3f 63 49 ab bf a6 39 fd b4 9b 11 b6 bf
       -0.05329427856925133 -0.08620618027382551
000550 96 f7 65 4f a8 00 a6 bf 96 48 e7 8d 03 97 8a bf
       -0.04297376603334084 -0.012983348625230467
000560 14 a7 56 0a 4e 8a 89 bf a5 a3 42 b9 59 54 c6 bf
       -0.012470826807504255 -0.17444917245782424
000570 9b b8 ee f0 85 cb 95 3f 6e 9f d3 a3 30 b6 c3 bf
       0.021284191923478173 -0.15399749755237785
000580 62 72 c3 1c 22 22 9c bf 1e 92 cf 0e b9 97 c2 bf
       -0.027473958020765805 -0.14525521491226895
000590 5b 6d 36 cb 79 bf 81 3f 54 05 f9 eb 44 72 b3 bf
       0.00866599227338465 -0.0759623600106541
0005a0 18 9b 9a 8e 59 de b4 3f 96 87 df 49 2e cb 92 bf
       0.0815177891878246 -0.018353198298320793
0005b0 99 16 32 90 7e e9 a2 3f 7e 87 9c fb 0d ce b9 3f
       0.03693767080498595 0.10080039399011118
0005c0 c2 f7 74 9d 9d cd ba 3f 95 be ba 36 b6 f9 7e 3f
       0.10469994634783489 0.007562362454038092
0005d0 76 7b 4b 79 3b 3f b4 3f 09 d3 10 8a 0a b4 c7 3f
       0.07908984862613785 0.18518192044725648
0005e0 de 11 42 e2 a6 2b b3 3f 32 59 4f 8d dc 80 b6 3f
       0.07488482498053581 0.08790377092313831
0005f0 02 e0 d5 fe 69 0f 83 3f 25 dd a2 38 21 de 91 bf
       0.009306743707142576 -0.01744892032794811
000600 5e 2d 26 c5 05 d5 b6 bf 07 3d ca f6 50 79 c2 3f
       -0.08918796599589515 0.14432727861683523
000610 2d d0 74 9b 0c 58 92 bf 1c 49 2a 39 cf b7 a5 3f
       -0.01791400622205701 0.042417979934855604
000620 70 31 fc 79 c5 2e 8b 3f 16 d0 a9 bc de 02 9a 3f
       0.013272803101721492 0.025401573433967505
000630 cb cd 02 2b 71 55 b4 3f e5 ed c4 d9 e7 0d 9b 3f
       0.07942874240943991 0.026420233408527855
000640 e3 f3 09 ac 98 8a c0 bf 20 54 40 16 d4 83 aa 3f
       -0.12922962570510696 0.05178702136633029
000650 44 ee 0d 41 70 11 c3 3f 4b 6b 2a ca f1 a6 80 bf
       0.1489696805618782 -0.00813092134676698
000660 f9 9c ab 66 9b 5c 69 3f 89 e4 41 29 30 fb 8b 3f
       0.0030959162880780347 0.013662697085452773
000670 04 d3 a4 a3 a4 a1 a6 bf 1c 41 30 47 50 56 ba 3f
       -0.044201989151053694 0.10287954080581979
000680 09 c2 ef 61 ec 0c 60 bf 64 a3 52 4c dc 2e b3 3f
       -0.0019592873427358754 0.07493378508901355
000690 73 12 dc c8 0a 67 83 3f e6 48 9d 05 32 a6 9e bf
       0.009473881010771045 -0.02993086013095416
0006a0 02 aa 5b b8 80 41 7f bf b8 ad 1c d2 3d 3d b2 3f
       -0.007630827725487512 0.07124697093666199
0006b0 84 3b 86 cc 59 a6 77 bf 65 71 34 5c 7b 60 b7 bf
       -0.0057738788385809404 -0.09131594658942317
0006c0 90 6f 4f 24 e7 2c b4 3f 72 5c 37 ba 42 41 a7 bf
       0.07881016384584272 -0.04541977427623402
0006d0 95 18 3f bc 6d cb 97 bf a5 f9 89 64 07 78 91 3f
       -0.02323695622887863 0.01705943633214137
0006e0 1a 48 61 15 e0 54 9c bf 17 99 8f 3b 2b 10 7d 3f
       -0.027667523674900087 0.007095497968270934
0006f0 4d 10 c8 54 c5 94 be bf 3b 93 4e e9 54 31 a7 bf
       -0.11945756263600167 -0.04529824588761363
000700 20 cd 2d 3f ba 00 a3 3f 8b 1f 8f 4c 1f e7 92 bf
       0.03711492558695739 -0.018459786460681065
000710 a6 67 19 27 7e f8 b1 bf b7 2a 41 08 32 b6 aa 3f
       -0.0701979489762424 0.052171290881763914
000720 c4 e9 b2 45 d0 ff a9 bf 27 32 fb 75 73 2d af bf
       -0.050779827602542876 -0.06089363875580416
000730 2f 0b 2b 42 89 a0 a1 bf 30 64 d5 d2 e6 b2 9c 3f
       -0.03442791874615236 0.028026205652484204
000740 3e 45 ef c1 46 25 ae bf 0a e4 3c 00 7b cb b0 3f
       -0.05887814633718812 0.06560486560637471
000750 64 9c a0 b5 8f ff 9d 3f 7b 32 e9 af a3 18 90 bf
       0.02929520174089041 -0.01571899186301316
000760 ea e4 63 8e 22 f6 a6 bf 62 85 bb 57 5d 31 84 3f
       -0.044846610910051 0.009859780540355249
000770 28 ce 8e eb 16 00 b2 bf 28 a0 b7 69 96 ec 8a 3f
       -0.07031386614726698 0.013146567441211301
000780 03 3e 3d 77 6d 50 90 bf c6 23 45 93 6f e5 93 3f
       -0.01593180694845665 0.019429915774967353
000790 d6 29 eb 6e 7c 94 8d bf af fe 4a d0 0f 0f b7 bf
       -0.014443370947806605 -0.09007357440259044
0007a0 07 e0 f0 5b d5 67 c1 3f 43 27 38 44 dc 8c a4 bf
       0.13598124493887573 -0.04013717968707777
0007b0 8a 0a e0 d7 39 e0 95 3f 38 4d 45 a7 be f6 91 bf
       0.02136316661927621 -0.01754281898440732
0007c0 34 5e c5 27 ba 0b 95 bf ce 9c e5 d1 16 e0 a2 3f
       -0.02055254810087899 0.036865914461310476
0007d0 58 fb 85 71 63 5b a9 3f 7e b7 a6 fe 79 5e c9 bf
       0.04952536354811937 -0.19819569524900865
0007e0 e7 b1 2c 14 92 19 b1 3f bd b4 a6 d3 39 74 af 3f
       0.06679642670196238 0.06143360813744312
0007f0 12 13 6c f0 bd 75 89 bf c8 71 54 00 f7 06 94 bf
       -0.012431606196977838 -0.019557818789609077
